KBWatch/app/src/main/assets/kettlebell_model.tflite (tflite, 48136 bytes, 7 tensors)

arith.constant f4 [64]
000000 b9 1a 96 bc 72 bc de 3c ca fa 27 bd 0b 71 ec bc
       -0.01832329 0.027189467 -0.041010655 -0.028862497
000010 44 26 2d 3d e3 e0 e8 3c 23 2f 3c bd 0a c5 40 bc
       0.04227282 0.028427547 -0.04594339 -0.011765728
000020 d1 11 01 3d ce 56 10 bd 07 39 52 bd 79 3b 63 3d
       0.03151113 -0.035239033 -0.051323917 0.05547664
000030 bf 1e 31 bc f0 c5 ea bb d9 ad 0a bd 00 00 00 00
       -0.010810553 -0.0071647093 -0.0338572 0.0
000040 c6 9d cd bc 29 aa 05 3d f4 57 7b bc 40 c8 c0 bc
       -0.025099646 0.03263298 -0.015340794 -0.023532987
000050 c4 a1 94 bc e0 1a 0b bd 15 c2 22 3d f9 d2 93 bc
       -0.018143542 -0.033961177 0.039735872 -0.018044936
000060 c6 85 23 bd 7a be 40 bd 73 e1 d3 bc 8d 17 69 3d
       -0.0399225 -0.047056653 -0.025864339 0.056907225
000070 25 32 cc ba b7 7a 5c bc ce 13 d3 3c ee 68 8a bb
       -0.0015578909 -0.013456992 0.02576628 -0.0042239344
000080 ba e7 34 3d 9b 44 30 bd c5 ec eb bc c2 2a 8a bc
       0.044166304 -0.043034177 -0.028799424 -0.016866092
000090 72 40 ce bc 5b d9 83 3c 8e de 89 3d c7 d1 6a bd
       -0.025177214 0.016094854 0.06731902 -0.057328966
0000a0 e2 da 0e bd cf 52 0b 3d 96 71 42 3d e2 0f e2 bc
       -0.03487671 0.03401452 0.047471605 -0.027595464
0000b0 e4 61 56 bd f2 30 04 3d 40 b1 1d bc c2 ac 65 3d
       -0.05233945 0.03227324 -0.009624779 0.056072958
0000c0 e9 47 95 bc 00 00 00 00 00 e7 b1 3c 0d 65 ec bc
       -0.018222766 0.0 0.021716595 -0.028856779
0000d0 3a 08 59 3d 59 28 3e 3d 92 c9 24 3d 8a 74 98 3d
       0.05298636 0.046425197 0.040231295 0.07444103
0000e0 32 de 56 3d 00 00 00 00 49 ee 10 bc cb 73 a4 bb
       0.052457996 0.0 -0.008845874 -0.0050186864
0000f0 61 0a 03 bd 8f cb e7 bc 15 2b 30 3d 69 2f 45 bd
       -0.03199232 -0.028295306 0.043009836 -0.048140917

arith.constant1 f4 [32]
000000 f3 21 96 bc f2 d5 37 3d a7 63 2b bc 45 65 81 3d
       -0.018326735 0.04488177 -0.010460771 0.06318144
000010 3c 2e f3 bc 60 91 91 3d 67 09 58 3c 25 6f e9 bc
       -0.029685132 0.07107806 0.013185835 -0.02849538
000020 cf 93 35 3d a9 4f 83 3d 11 2c d0 3b 7e e8 36 bd
       0.044330414 0.06411678 0.0063529094 -0.044655316
000030 76 af 9f bd 52 83 80 bd 39 20 57 bd 82 b7 8d bc
       -0.077971384 -0.06275047 -0.052520964 -0.017299417
000040 9e 3e c3 3c 5b fa 8a bc da 39 3f bd 56 71 81 3d
       0.02383357 -0.016965082 -0.04668603 0.06320445
000050 bb 25 77 3d df 2e 6e bd fc 80 53 3d f4 be 22 bd
       0.060338717 -0.05815017 0.05163668 -0.03973289
000060 aa 1f 3e 3d 8f cb 0b 3d e6 d1 91 3c 5e 60 99 3d
       0.046416916 0.034129675 0.017800283 0.07489084
000070 54 44 6f 3d 99 ef 3d 3d ca a6 a2 3d 18 7a 81 3d
       0.058414772 0.046371076 0.07941969 0.06322116

arith.constant5 f4 [64, 1, 3, 32]
000000 ba 61 bc 3d 76 67 c3 bd 1a 75 10 3e ec c0 3c 3e
       0.09198327 -0.09541218 0.1410717 0.18432969
000010 05 36 ae bd 52 b7 98 bc df 31 9b 3c cf e6 07 3e
       -0.08506397 -0.018642101 0.018944679 0.1327164
000020 8c 92 05 3e 6d bc c2 bd 38 61 03 3e b0 ce ca 3d
       0.13044184 -0.095085956 0.12830055 0.09902704
000030 d1 2b 28 bd c0 e0 1b 3e 70 d2 9e 3d d8 ce 64 bd
       -0.04105741 0.15222454 0.077549815 -0.055861324
000040 8f 1c 10 3d de 5a af bd e2 10 0e 3e 01 6b f2 3d
       0.035183486 -0.085622534 0.13873628 0.118368156
000050 66 98 cf 3d ca d9 a4 bb ac f3 83 bc c3 3c a3 bd
       0.101364896 -0.0050308453 -0.016107403 -0.07970574
000060 f7 62 bd bb ac 80 e1 3d 28 37 d4 bd fe 2f bd bd
       -0.00577962 0.1101087 -0.10362083 -0.092376694
000070 73 af a7 bd e7 6f 2c 3d 87 53 7a bd 4c 58 97 bc
       -0.08187761 0.042098906 -0.061114814 -0.01847472
000080 d5 e0 81 3d 3c e8 00 be 6b 64 08 3d d9 32 eb 3b
       0.063417114 -0.1258859 0.03329889 0.0071776924
000090 de 97 62 bd b3 ed 06 3a 0a b9 1d 3d dc a3 c0 3c
       -0.055320613 0.0005147114 0.038506545 0.023515634
0000a0 29 dd 6d 3d d1 26 63 bd e2 e7 2c 3d c7 74 63 bd
       0.058072243 -0.05545694 0.04221333 -0.05553129
0000b0 72 57 06 be 3e 4d ce 3d 5b 2d f0 3d 7d 07 27 3d
       -0.13119295 0.100733265 0.11727401 0.040778626
0000c0 2e c1 1d bd 63 b7 c8 3d a4 af a8 3d bd a4 02 3d
       -0.03851431 0.09800603 0.08236626 0.031895388
0000d0 b7 e7 60 3d 41 ac 08 3e 1b 44 fb 3a 8b aa 98 bd
       0.05490848 0.1334696 0.0019170077 -0.074544035
0000e0 b8 58 48 bc 08 d8 92 bc 6e 1a 95 bd a8 73 af 3a
       -0.012228183 -0.017925277 -0.07280432 0.0013385909
0000f0 45 6f 9a 3d e2 f0 20 bd 6a 36 4b bd 93 0f d0 bd
       0.07540754 -0.039292224 -0.04961244 -0.101592205
000100 48 2f 9e 3c da 1d b2 bc 5a 18 49 3d 16 1e 16 3d
       0.019309655 -0.02174275 0.04909549 0.036649786
000110 6e 60 c0 3d be e7 04 3e 91 d3 5c bd 99 a4 e9 3d
       0.093933925 0.12979028 -0.053912703 0.11408348
000120 68 e3 f9 3d 2a f9 3d 3d fd da a4 3c 2f 56 e8 bd
       0.122015774 0.0463802 0.020123953 -0.11344563
000130 3e 47 04 be c5 d6 42 3b bc 0f 98 bd 5b 83 9d bd
       -0.12917802 0.0029730063 -0.07424876 -0.0769107
000140 39 ef 02 bc 8f 33 63 bc 4b ff 92 3d 8c 9e c0 bd
       -0.007991605 -0.013867273 0.071775995 -0.094052404
000150 ae 9a 37 3c 4c 57 45 3d c4 94 a1 3d b0 e4 02 3e
       0.011206312 0.048178956 0.07889703 0.1278255
000160 95 8a c4 bd 1d ba f4 bc 72 97 13 bd fe 65 47 bd
       -0.09596745 -0.029873902 -0.0360331 -0.04868125
000170 43 bb bf 3d 4c 52 02 3e f2 98 b8 3c 97 6c 1e bd
       0.09361889 0.12726706 0.022533868 -0.038677778
000180 e9 26 b9 bd ae 12 8c 3d 84 85 b1 3b 3a 14 bc 3d
       -0.09040625 0.068395 0.0054175276 0.091835454
000190 cf a0 00 3b 9c 49 fa 3c 32 78 9b bd 70 c3 9f 3d
       0.00196271 0.030552678 -0.07591285 0.078009486
0001a0 fc 82 b8 bd 4d 5b 72 bd cf 50 96 3d f5 39 16 3e
       -0.09009358 -0.059169102 0.07339632 0.14670546
0001b0 06 0b d0 bd 59 83 31 be b9 d3 cc bc b9 d7 da bd
       -0.101583526 -0.17335261 -0.025003301 -0.10685677
0001c0 61 02 03 be 58 43 27 3d 46 37 12 3d 8a a6 25 be
       -0.12793876 0.04083571 0.035697244 -0.16176811
0001d0 a5 f6 27 3e 3b 78 85 3c 4c 08 b7 bd 26 52 d2 3d
       0.16402681 0.016292682 -0.089371294 0.10269575
0001e0 c7 0c f5 bc 75 4b 0c 3e 10 df 41 3c 44 30 86 3b
       -0.02991332 0.1370066 0.011832967 0.004095109
0001f0 51 bd 9a bc 73 2b d3 bd d8 38 1a 3d 11 90 80 3d
       -0.018889101 -0.10311022 0.037651867 0.062774785
000200 2f 52 21 be 52 bc d2 3d 8d e3 bb 3d cf db dc 3b
       -0.15754007 0.102898255 0.09174261 0.0067400704
000210 38 65 0f 3d ed af 12 3c 77 0b 0c 3e 28 de 8c bd
       0.03500864 0.008953077 0.13676248 -0.068783104
000220 20 2c af 3d 2d 34 32 3d ff 46 cb 3d d4 06 47 be
       0.08553338 0.04350679 0.09925651 -0.19436198
000230 08 03 9b bd 5d 5b af 3c d3 38 6b 3c bb 4f 1a 3e
       -0.075689375 0.02140587 0.01435681 0.15069477
000240 c3 5e a2 bc eb ae 2b be e1 6c 02 be dc 8a 06 3e
       -0.019820577 -0.16765945 -0.12736847 0.13138908
000250 92 9e e7 3d 97 e5 a7 3d 78 51 42 3c 1d 27 b1 bd
       0.11309542 0.08198088 0.011860244 -0.086500384
000260 f9 a5 b6 3d ab 6d 1a bb 42 f6 ef 3d 4c df 46 bd
       0.089183755 -0.0023563902 0.11716892 -0.048552796
000270 a7 4e 98 3d cf 59 14 3e 75 cd 04 3e 6d 04 20 3e
       0.07436877 0.14487384 0.12969 0.15626688
000280 44 75 21 3d ca 00 06 be 73 9d 00 3e a7 ef ff 3d
       0.039418474 -0.13086239 0.12560062 0.12496882
000290 f5 e5 85 3d 40 36 90 bd 26 7b eb 3d e9 84 b4 bd
       0.065380014 -0.07041597 0.11498098 -0.08814413
0002a0 40 b1 02 3e 7d 7e 40 3d 50 a3 44 3d 88 e7 c4 bc
       0.12762928 0.04699563 0.04800731 -0.024036184
0002b0 76 f6 47 3d 16 56 0f be ad 55 67 bc 7a 27 cf bd
       0.048819028 -0.13997683 -0.014119548 -0.101149514
0002c0 39 dc 94 3d 33 37 b5 3a fc 00 b8 bd 41 54 e9 3d
       0.07268567 0.0013825655 -0.08984563 0.11393023
0002d0 ca 9d 03 3d 99 fb f8 bd 54 92 f0 3d ba 92 3d bd
       0.0321329 -0.121573634 0.1174666 -0.046282507
0002e0 7e d8 23 bd 8e 37 7d 3d 33 ab 86 bc 37 ef c3 bd
       -0.040001385 0.06182056 -0.016439056 -0.09567111
0002f0 83 2f bc bd a4 11 eb bd 1a ae 09 3e e5 3d 9a bd
       -0.0918875 -0.11477974 0.1344532 -0.07531337
000300 e5 1c 6c bd 29 31 64 3c 5b b1 ed bd cf 22 96 3d
       -0.057644743 0.013927736 -0.116060935 0.07330858
000310 a7 6d 6e 3d 59 70 a1 bd 56 c3 ea bd 4b 47 d5 bd
       0.05821004 -0.07882757 -0.114630386 -0.10413989
000320 61 6d 30 bc a4 39 44 bd 3b 53 db 3d 9b 9a 3d bd
       -0.010768265 -0.047906533 0.10709234 -0.04629002
000330 3d e9 23 bd ae 12 f8 3d 07 64 22 3d be 21 38 bd
       -0.040017355 0.12112938 0.039646175 -0.044954054
000340 6a 32 86 bd 40 ac 80 3d 5a a8 36 3e 29 86 af 3c
       -0.065525845 0.06282854 0.17837659 0.021426277
000350 4c 76 6d bd 26 66 84 3c 62 5e d5 bd 6f c1 d0 3d
       -0.057974145 0.01616199 -0.10418393 0.101931445
000360 0f 7a 8c 3d 83 71 18 3e a1 bc 39 bd 47 e1 60 bd
       0.06859218 0.14887051 -0.045345906 -0.05490234
000370 38 fd e3 bd c4 3b ce bc 9d d7 e7 bd dd b1 c8 bd
       -0.11132282 -0.025174983 -0.11320422 -0.0979955
000380 1a 30 14 3d d6 9d 63 3b 19 7e 8d bd 18 24 7c 3d
       0.036178686 0.0034731529 -0.06908817 0.06155786
000390 1b 67 d2 3d 55 5b 3a 3d b3 e9 85 3c b6 ac ba 3d
       0.10273572 0.045497257 0.016346788 0.09114973
0003a0 50 c4 15 be 4d fe cb bb 5d b6 e9 bd cd 84 e3 3c
       -0.14625669 -0.0062253834 -0.11411736 0.027773285
0003b0 5d a5 83 3d 05 90 ce 3d 49 ab 16 be c5 f0 0b 3c
       0.06428025 0.10086063 -0.14713778 0.008541291
0003c0 8d 7e d4 3d 54 93 21 3e 1c f7 bc 3d 6c b3 e8 bc
       0.103757 0.15778857 0.0922682 -0.028405868
0003d0 44 78 18 bd b3 0c d0 3d fa f9 31 be 35 47 ba 3d
       -0.03722407 0.10158672 -0.17380515 0.09095613
0003e0 2a 7e f9 bc 55 fa 03 3c cf 8e ef 3d 7f 87 00 be
       -0.030455668 0.008055289 0.116971605 -0.12551688
0003f0 e5 8e e8 3d 88 4a 15 be 58 fb 9d 3c 5b e0 1a bd
       0.1135538 -0.14579213 0.01928489 -0.03781162

arith.constant6 f4 [32, 1, 3, 3]
000000 3a 62 32 be 33 1a d7 3d 70 7d f9 bd 8c 9c d2 3d
       -0.17420283 0.10503044 -0.121821284 0.10283765
000010 67 08 af 3d 8b 8a 85 be 87 3b 04 be 71 f2 75 3e
       0.085465245 -0.26082262 -0.12913333 0.24018265
000020 9c 43 91 bd 6e d6 d1 bd 84 08 cd bd 68 6f 17 3d
       -0.070929736 -0.10245977 -0.1001139 0.03697148
000030 db 1c f8 3d a0 ef 08 be 33 d6 9a bc a5 a6 95 bd
       0.12114879 -0.1337266 -0.018900966 -0.073071755
000040 93 8f 46 be 7c c1 50 3e 5b d8 80 be 9e 8e 1e 3e
       -0.19390707 0.20386308 -0.25165066 0.15484092
000050 ad f8 4f be b6 db 62 be 04 6e 4a 3e f5 ef 1f 3e
       -0.20309706 -0.22154126 0.1976853 0.1561888
000060 0c b3 d7 bd 85 70 fb bd 10 89 72 3c 83 08 13 3e
       -0.10532197 -0.12277321 0.014803186 0.14358716
000070 8b 04 d8 3d c6 35 1a be db 96 7c be fa e2 8e bd
       0.105477415 -0.15059575 -0.24666922 -0.06976886
000080 e5 43 29 3e 20 a9 76 3d 92 15 cd 3d 18 eb cf bd
       0.16529806 0.060219884 0.1001388 -0.101522624
000090 77 6d b6 3d be 22 28 bd 8a cc 2e 3e 6c 48 95 bc
       0.089075975 -0.041048758 0.17070213 -0.01822301
0000a0 92 03 cf bd 55 c0 af bd d5 f7 c5 bd 72 ae 53 3e
       -0.10108103 -0.08581606 -0.09666411 0.20672014
0000b0 84 20 67 3e b8 17 69 3d 87 e9 55 bd 74 5b 00 be
       0.22570997 0.056907386 -0.052224662 -0.12534887
0000c0 fd 47 54 3e d0 47 2d be ee b6 5b 3e 48 8b 81 be
       0.20730586 -0.16921926 0.21456501 -0.25301576
0000d0 c2 9f da bd da cb f7 39 da b1 19 3e f1 b1 ea bd
       -0.10675003 0.00047263392 0.15009251 -0.11459721
0000e0 ba 65 2f 3e 71 77 87 be 42 90 30 be 5d f4 e1 3d
       0.1712865 -0.26458314 -0.1724253 0.11032937
0000f0 a7 38 66 3e 29 e1 48 bd 6a e1 06 be 10 a8 86 bd
       0.22482549 -0.049042854 -0.13171926 -0.06575024
000100 f2 2f fb bd e3 89 34 3e 45 bb 24 be 4b d6 d9 3c
       -0.12265004 0.17630725 -0.16087063 0.02659144
000110 e5 27 0e be e4 b0 74 be 2e b9 00 be 06 42 3a be
       -0.13882406 -0.23895603 -0.1257064 -0.18189248
000120 5e 09 9c be 2e c2 32 3e e4 c8 98 bd 60 67 70 be
       -0.30475897 0.17456886 -0.07460192 -0.23476934
000130 14 73 52 3e b8 1f 0d 3e c8 fc c3 3d ad aa 3d bd
       0.20551711 0.13781631 0.095696986 -0.046305347
000140 14 75 41 3e d4 dc 27 3e 3b 4f 79 3e 33 30 64 3e
       0.18892318 0.16392833 0.2434663 0.22284012
000150 7d 5c 02 bc be 8c e6 bd 19 22 5e 3e 03 19 bc be
       -0.007956621 -0.11257313 0.21692695 -0.36737832
000160 89 87 1a 3c 31 f7 c6 3a 71 7a 02 be 46 1a 89 bd
       0.009431728 0.001517987 -0.1274202 -0.066944644
000170 b6 36 22 be ff 05 03 be 9b fa 4d 3e 63 5b b3 bd
       -0.15841183 -0.12795256 0.2011513 -0.08757665
000180 8a 76 72 be 46 c5 23 be 5e b8 f1 3d b5 89 be 3d
       -0.23678032 -0.15993223 0.118027434 0.09303609
000190 27 1f f6 bc 82 9b 34 3d b5 10 3f 3e c4 6e 67 3e
       -0.030044151 0.044093616 0.18658717 0.22600847
0001a0 a1 ae c2 3d 0b 10 b4 bd 5d b9 f3 bd 7b 1c f7 bd
       0.09505964 -0.087921225 -0.119005896 -0.12065979
0001b0 1d b7 40 3e f0 ca bc 3c 3d 37 6b be 9f 2e 5b 3e
       0.18819852 0.023045987 -0.2297029 0.21404503
0001c0 75 8c b4 3d ff 42 bf 3d 45 b3 80 bd 4d 81 83 3d
       0.088158526 0.0933895 -0.06284193 0.064211465
0001d0 8b 93 11 3e 60 f0 12 3e 4f 50 f2 bd 38 0e 3e 3e
       0.1421644 0.14349508 -0.11831724 0.18560112
0001e0 3d 5a 3c 3d b7 77 f4 bd fd 3d 1c 3e 66 7f 1d 3e
       0.045984495 -0.11936896 0.15258022 0.1538063
0001f0 70 da 60 3e 76 ed 00 be 6c 92 ea 3d a5 ec 5f 3e
       0.21958327 -0.12590584 0.11453709 0.21867616
000200 11 07 0e 3e fd 25 34 3d fc 23 c6 3a 78 b3 4e 3e
       0.13869883 0.04398154 0.0015116925 0.2018565
000210 f1 3e 85 3e 8d 67 a8 3d 09 23 24 3e 8f 3f 54 3e
       0.26024583 0.08222876 0.1602899 0.2072737
000220 c6 07 d8 bd 7d 3a a4 3c c9 3c df bd 09 18 d1 3c
       -0.10548358 0.02004742 -0.10900266 0.025524156
000230 9f c3 25 be 06 9b e7 3d 05 9c 97 bb d7 f3 c8 bc
       -0.16187905 0.11308865 -0.0046267533 -0.024530334
000240 38 2e aa bd 3f 08 4f be f6 4c ad 3d 96 46 9d bc
       -0.08309597 -0.2021799 0.08461945 -0.019198697
000250 8f d8 66 be 91 64 71 3e aa 29 6f be d7 d4 89 bd
       -0.22543548 0.2357352 -0.23355737 -0.06730049
000260 40 be 01 be 28 78 5c 3d 0d e8 15 be 12 c5 46 be
       -0.12670231 0.053825527 -0.14639302 -0.19411114
000270 be f0 fd bd 78 70 6c be 4d d8 e0 3c e7 a4 3a 3c
       -0.123994336 -0.23089778 0.02744689 0.011391855
000280 7a 99 3f be 1c 1d 7c 3e 8d 69 db 3d 3d 61 13 3e
       -0.1871089 0.2462048 0.107134916 0.14392562
000290 76 e5 b1 3d e6 96 d3 3d c1 df ce bc 00 bf a1 3d
       0.08686344 0.10331516 -0.025253179 0.078977585
0002a0 c1 a1 4b 3e b8 63 56 3e 4e c7 23 be fe cb 8a 3d
       0.19885923 0.20936477 -0.15993997 0.0677719
0002b0 fc f9 f2 bd 69 b5 3e 3e e8 74 72 be 63 7c 59 3e
       -0.11864087 0.1862389 -0.23677409 0.21238856
0002c0 e8 3e 99 bd 2a 7f 24 3d ef 41 38 be 11 ce 8e 3d
       -0.074827015 0.040160336 -0.17993902 0.06972898
0002d0 dd 91 2a 3e 50 db cc bd 07 36 9a bd 57 7b 49 be
       0.16657205 -0.10002768 -0.07529836 -0.19675957
0002e0 89 54 72 3e b5 f9 1f bd d8 28 88 be 77 65 8f bd
       0.2366506 -0.0390565 -0.2659366 -0.07001775
0002f0 32 d7 4e 3e d8 32 46 3e 4c 8c 63 3e ba 99 10 3e
       0.20199278 0.19355333 0.22221488 0.14121142
000300 4a 7f 3e 3e c3 a6 69 bd 23 d1 1b 3e 87 1b 4b 3e
       0.18603244 -0.057043802 0.15216498 0.1983472
000310 c7 3c 4f be 59 5e 54 be 37 3a 38 be db 04 3f be
       -0.20238028 -0.20739116 -0.17990957 -0.18654196
000320 19 fa 07 3d 9b 9d f8 3c 99 dd f8 3d b8 55 ac 3d
       0.033197496 0.03034859 0.121516414 0.08414787
000330 c2 67 ac 3d 5b 02 f9 bd 0c 03 e5 3b a5 79 4a 3d
       0.08418228 -0.121586524 0.0069888886 0.049432416
000340 b7 37 c9 3d 50 c2 df 3c 46 47 7d be 9b 3d 4e 3d
       0.0982508 0.027314335 -0.2473422 0.05035172
000350 5a d0 11 3e 02 06 d0 3d 55 4c c3 bc 50 85 2a 3e
       0.14239636 0.10157396 -0.023840109 0.16652417
000360 f9 1e b0 3d 47 b4 eb bd 9a cc 30 3d 28 32 69 be
       0.085996576 -0.115089945 0.043163873 -0.2277304
000370 c8 10 92 3a a2 56 31 3e 0a 8e 67 3d d3 b7 65 3e
       0.0011143917 0.17318204 0.056531943 0.22433405
000380 1b bb 6a 3d ee e6 52 3e a0 5f 31 3e c1 d8 c2 3d
       0.057307344 0.20595905 0.17321634 0.09513999
000390 6b 33 9f 3d 32 43 87 bd 32 2b 3c 3e c9 d6 05 be
       0.07773479 -0.06604613 0.18375853 -0.13070215
0003a0 35 da 47 bd af 25 00 3e 1f 9e a5 be 71 67 ba 3d
       -0.048792083 0.12514375 -0.323472 0.09101761
0003b0 84 50 26 3e fd bd e8 3d da be d6 bc 7f 76 52 3d
       0.16241652 0.113643624 -0.026214052 0.051382538
0003c0 b6 4a ee 3d c2 2e bd 3c 70 c1 36 3e ab 48 2c be
       0.11635344 0.023093585 0.17847228 -0.16824596
0003d0 8e 98 db bd 34 bf 9c bd 9f 48 96 bd a8 92 65 bd
       -0.10722457 -0.076536566 -0.0733807 -0.056048065
0003e0 53 f5 f5 3b 68 ed a2 bc 4f 5e 58 3e d6 b5 3e 3e
       0.0075060516 -0.019888595 0.21129726 0.18624052
0003f0 37 b7 36 3e 84 0a b4 3d 02 68 12 be d0 a9 52 3c
       0.17843328 0.08791068 -0.14297488 0.012857869

arith.constant7 f4 [1, 64]
000000 29 e1 25 be c1 3d 27 bd 05 fb 25 be 23 11 d6 bc
       -0.16199173 -0.040830377 -0.16209038 -0.026131218
000010 13 14 8b be a3 f7 57 3e ac 24 67 3d cc de 8e 3e
       -0.27163753 0.2109056 0.056431457 0.27904356
000020 de 7b 65 3e 7a 8e 13 be 9c a2 9a be 2f 10 8d be
       0.22410533 -0.14409819 -0.30202186 -0.2755141
000030 32 a6 93 3e df 9e 83 bd f9 f9 87 be 8c 20 7a be
       0.28837734 -0.06426787 -0.26557902 -0.24426478
000040 10 bf 5d 3d 93 75 64 3e a3 c6 59 be 9c f0 e0 bd
       0.05413729 0.22310476 -0.2126718 -0.109833926
000050 38 27 ab bb ea 9d 32 3e 4f 85 02 3e fd 33 cb 3d
       -0.005223181 0.17443052 0.12746166 0.09922025
000060 40 fc 81 3c c8 8d d2 3d 67 4b 2d 3e d6 57 98 3e
       0.015867352 0.10280949 0.16923295 0.29754514
000070 6c 8d 0f 3e 73 b6 8f be cd cf 93 3e 8c 16 23 3e
       0.14018792 -0.28068885 0.28869477 0.1592657
000080 0f 21 b4 3d 57 37 98 be 89 cd 96 be 40 00 aa be
       0.08795368 -0.2972972 -0.29453686 -0.33203316
000090 4b 48 35 3e 20 fd f6 bc 77 f1 64 be 39 c8 fa 3d
       0.17703359 -0.030149996 -0.22357737 0.12245221
0000a0 28 db 2e be 85 1c 94 3d 31 81 3a be 67 e1 03 be
       -0.17075789 0.07232002 -0.18213345 -0.12878953
0000b0 12 95 0c 3e 7c f0 ef 3d 62 aa 3f be d0 59 9e be
       0.13728741 0.11715791 -0.1871734 -0.30927896
0000c0 5a d5 1b 3e 7e ad 0b 3e 3a 3b 66 3e 1d b8 a2 3e
       0.15218106 0.13640401 0.2248353 0.31781092
0000d0 75 49 6a 3e e0 eb 71 3d 72 60 7e be f0 a9 f9 3d
       0.22879584 0.05906284 -0.24841478 0.12190616
0000e0 09 16 08 3e 04 8c 72 be f5 52 53 3d 4b d7 c2 bd
       0.13289656 -0.23686224 0.051592786 -0.0951372
0000f0 cc 27 9c be 5a 6d 8e 3e ea b5 8d be d9 1d fb 3d
       -0.30499113 0.27817804 -0.27677852 0.12261552

arith.constant8 f4 [64, 64]
000000 f8 32 81 bd a0 b1 17 3d e8 8f 12 be 40 40 04 bd
       -0.0630855 0.03703463 -0.14312708 -0.032287836
000010 35 a2 1f 3e 83 b0 27 3e 58 72 d5 bd 50 4e 23 bc
       0.15589221 0.16375928 -0.104222 -0.009967402
000020 32 12 80 3d c2 c0 52 be 9b ff a9 3d 11 77 ed 3d
       0.062534705 -0.20581344 0.08300706 0.11594976
000030 fe a4 db 3d ec 42 10 be f3 4b 26 3d 0f 03 ca bd
       0.10724829 -0.14088029 0.040599775 -0.09863865
000040 66 19 07 3e 54 bf 1e be 8e d4 9d 3d 41 ae 35 bd
       0.13193282 -0.15502673 0.07706557 -0.044355635
000050 e5 e9 cf 3d ff 1c 22 bd 74 6c 63 be 8b 35 78 3d
       0.10152034 -0.039578434 -0.2220934 0.060597938
000060 5b f4 0f be 36 7a 15 be 2e 75 8a bd 74 e0 43 3e
       -0.14058058 -0.14597401 -0.067606315 0.19128591
000070 68 65 98 bd d1 51 68 3d db 78 12 be d0 42 83 bd
       -0.07441217 0.05671865 -0.14303915 -0.06409228
000080 54 c2 0d be 30 67 01 bb d1 05 30 be 6a d9 35 be
       -0.13843662 -0.0019745342 -0.17189719 -0.17758718
000090 3f e4 2f 3e 36 95 af 3d 9d 77 af 3d 03 0f fb bd
       0.17176913 0.085733816 0.08567736 -0.12258723
0000a0 15 5d d0 3d da f6 15 be bf ff 09 3e 59 47 19 3c
       0.10174004 -0.14644948 0.13476466 0.0093553895
0000b0 2a b6 ff 3d e6 dd 69 be 7a b5 99 3d 6c 20 2c 3e
       0.12485917 -0.22838554 0.07505317 0.16809243
0000c0 bd 38 1f 3e 76 d8 ae 3d a3 4a d6 bc d0 49 31 be
       0.15548988 0.085373804 -0.026158636 -0.17313313
0000d0 4a e3 6c 3d 49 9b 49 be af 92 d8 bd a4 b0 69 3d
       0.057833947 -0.19688143 -0.10574853 0.057053223
0000e0 ee 69 1d be 6d 0b 50 be 92 34 bf 3d 53 ba 29 3e
       -0.1537244 -0.20316859 0.09336199 0.16574983
0000f0 ff 29 92 bd 3a da 5a be 3a 64 22 3e 1b da 5f 3c
       -0.07136916 -0.2137231 0.15858546 0.01366284
000100 0c 2a 14 be 54 02 4e be ca ac 4d be 68 0b d8 bc
       -0.14469165 -0.20118076 -0.20085445 -0.026372626
000110 ff 8b 38 3e 3e af b9 3d 48 53 ff 3d 4e b6 96 3d
       0.18022154 0.09066628 0.124670565 0.073589906
000120 b4 53 dc bb 7e 08 1b 3d 30 d7 1a 3e d5 04 df bc
       -0.0067238454 0.037849896 0.1512115 -0.027223984
000130 04 e4 37 be 6b e1 04 be 5b ea 39 be e4 eb 6a 3d
       -0.17958075 -0.12976615 -0.18155806 0.05735387
000140 25 f8 dc bd 9b 74 46 3d b2 39 80 3d 08 15 18 be
       -0.10789517 0.048451047 0.062610045 -0.14851773
000150 93 1b 02 3e 88 b6 fb bc d9 8f b8 bc 1e 7d 3b be
       0.12705831 -0.030726686 -0.02252953 -0.18309447
000160 cc 56 57 3e 11 9a 01 3e 6c 2c fa 3d 15 08 e4 bd
       0.21029204 0.12656428 0.12215504 -0.11134354
000170 d6 c7 b0 bd 00 6f 30 be d5 7c 46 be d0 47 58 bc
       -0.08631866 -0.17229843 -0.19383557 -0.013200715
000180 11 65 87 bd 89 c0 12 3e d7 18 8c bd 60 76 ef 3d
       -0.06611074 0.14331259 -0.06840675 0.116925
000190 e3 43 ab 3b 32 e1 28 3e 8a 38 ea 3d 89 44 5b be
       0.0052265986 0.16492155 0.11436565 -0.21412863
0001a0 eb 0e e3 ba f9 2b 19 3e d7 d5 3f be 27 7c 34 be
       -0.0017323171 0.1495818 -0.18733917 -0.17625485
0001b0 21 df 61 bc af b4 e5 bd 2a c2 8b bd 00 83 2c 3d
       -0.013786108 -0.11216103 -0.06824143 0.04211712
0001c0 6a b1 42 be 6c 2c 24 3d 48 9b 17 3d 1b ad 45 3e
       -0.1901299 0.040081427 0.037013322 0.19304316
0001d0 2a 4f 40 bd 17 71 a5 3d c8 8f 46 be 1d f3 da bd
       -0.046950497 0.08078211 -0.19390786 -0.106909014
0001e0 67 f2 e2 3c 58 a8 a8 bd 87 23 2c 3e b3 bd 42 be
       0.027703477 -0.08235234 0.16810428 -0.19017677
0001f0 36 36 73 3d 55 b0 46 3e 33 89 02 be 6f 29 f3 3d
       0.05937787 0.19403203 -0.1274765 0.11873137
000200 fd 9c 05 3e 76 8d 34 3d 03 c7 60 3e 60 a2 73 3d
       0.13048168 0.04408022 0.21950917 0.059481025
000210 ee bf 06 3e ab 2b 27 bd aa 86 c6 bd 12 38 be bd
       0.13159153 -0.04081313 -0.09693654 -0.09288038
000220 2e a7 45 3d 51 f4 48 bc 7b 17 27 3e c3 66 aa bd
       0.048255138 -0.012265281 0.16317551 -0.083203815
000230 ed 27 40 3e 4c 1f 32 3e b1 7a 20 3e c0 91 1c be
       0.1876523 0.17394751 0.15671803 -0.15289974
000240 87 c6 73 bc e0 0e f5 3d b3 e9 30 3c f0 b9 b3 bb
       -0.014878876 0.11965728 0.010797906 -0.005484812
000250 19 13 03 3e 52 68 19 be 8b 7b fd bd 68 ca 18 3e
       0.12800254 -0.14981201 -0.123770796 0.14920962
000260 c0 59 0b be 2e d4 5b 3e b1 02 e5 3c 12 0e 15 be
       -0.13608456 0.21467659 0.027955385 -0.14556149
000270 e1 aa 3e 3e fc a0 e4 3a 12 8a 37 be ec d6 c2 bd
       0.18619873 0.0017442997 -0.17923763 -0.09513649
000280 df 91 fb 3d 19 e7 83 3e de 15 19 be 04 14 69 be
       0.12283682 0.2576225 -0.14949748 -0.22761542
000290 29 ea 05 3e 84 2a f9 3c e7 88 38 bd 22 15 11 be
       0.13077606 0.03041578 -0.045052435 -0.14168218
0002a0 48 b2 2f 3e d7 5b 6f 3d c1 69 73 bd 94 86 08 be
       0.17157853 0.058437195 -0.059427027 -0.13332587
0002b0 84 d4 48 3e 23 2a 36 3e 30 53 8f 3d 5c c6 4e be
       0.19612318 0.17789511 0.06998289 -0.20192856
0002c0 b3 4c 52 3e 83 80 4d be b6 91 d8 3c 9f ab 7c bd
       0.20537071 -0.20068555 0.026436668 -0.061687108
0002d0 7e 39 3c 3d 4e ee 69 bd bc 06 c8 3d 19 8d 77 be
       0.045953266 -0.05711203 0.097669095 -0.24174918
0002e0 db 4d 34 bd ca 63 15 be 9d 9a 07 3e f8 22 38 3e
       -0.04401956 -0.14588848 0.13242574 0.1798209
0002f0 71 fe c7 3d 96 ad 66 3e c3 42 0b be 6d db fe 3d
       0.09765328 0.22527155 -0.13599686 0.12444196
000300 00 a8 0e be 9a 9a 65 be 2b 8e 67 be 22 d1 e7 bd
       -0.13931274 -0.22422257 -0.22612827 -0.11319186
000310 5a 21 40 bd ca 7a 07 be bb fd 0c bd 33 ee 00 be
       -0.046906807 -0.13230434 -0.034421664 -0.12590866
000320 56 d0 82 bd c1 1e 4b be b6 9e 0f be 05 d9 27 3e
       -0.06387393 -0.1983595 -0.14025387 0.1639138
000330 00 77 17 3c 52 70 53 be e7 c6 19 be a6 b0 b0 3d
       0.00924468 -0.20648316 -0.15017281 0.08627443
000340 72 62 3a 3e 2d ad ac 3d c0 1f 17 be ce d2 01 3c
       0.18201616 0.08431468 -0.14758205 0.007923795
000350 45 6a 75 3d 0f ff 4a 3e a5 d2 15 3c 3d 6e 59 be
       0.0599158 0.1982386 0.00914446 -0.21233459
000360 d1 45 ff 3d bb 69 3e 3e c4 f3 29 3d 11 22 81 bd
       0.12464488 0.1859502 0.04149224 -0.06305326
000370 e4 9f de 3d 63 e6 d1 bd 81 30 10 3c 10 24 d2 bd
       0.108703405 -0.10249021 0.008800627 -0.102607846
000380 3e 03 20 3e b5 54 03 be 80 56 1e 3d 8c 55 d7 bd
       0.15626237 -0.12825282 0.03865671 -0.10514364
000390 02 43 35 be 02 8d 43 be e9 81 1f 3d 1f e4 46 be
       -0.17701343 -0.19096759 0.03894225 -0.19422959
0003a0 68 50 02 bd db f8 4d 3e dd c2 2e be 26 c1 bb bc
       -0.031814963 0.20114462 -0.17066522 -0.022919249
0003b0 12 98 66 be ba 16 10 be ee 0e a1 3d 74 4b 09 3e
       -0.22518948 -0.1407117 0.07864176 0.1340769
0003c0 e8 70 bb 3c d6 e6 c1 3d d5 93 06 be 27 17 16 be
       0.022880986 0.094678566 -0.13142331 -0.1465727
0003d0 9d db 0d be 84 1e 59 3d 9c 2e a2 3d 37 a1 fd 3d
       -0.13853307 0.053007618 0.07919046 0.12384265
0003e0 ab 16 4a 3e f8 0b 58 be d7 a5 44 3e 59 7d 1c 3e
       0.1973521 -0.21098316 0.19203888 0.15282191
0003f0 8b 05 8f bc 44 4a f1 3d 91 22 de bd 81 bf 44 be
       -0.017458698 0.11781743 -0.10846437 -0.19213678

arith.constant9 f4 [64]
000000 9b ac 3a bc 0e 14 a4 bc 9e fb 16 bd f0 c2 5d bc
       -0.011393691 -0.020029094 -0.036861055 -0.013535246
000010 be f9 4b bc 94 f8 db 3d 9d d6 8f 3d 11 85 87 3d
       -0.01244968 0.10740772 0.07023356 0.06617177
000020 95 11 61 3d b4 fe 4e bc 81 57 d5 bc 96 df 22 bd
       0.05494841 -0.012633968 -0.026042702 -0.03976401
000030 a3 00 5f bc ca 0c ba bc db f0 e2 bc 64 41 b4 bc
       -0.013610992 -0.022711176 -0.02770274 -0.022003837
000040 00 00 00 00 36 a7 3d 3d 27 24 f0 bc 33 27 d3 bc
       0.0 0.046302043 -0.029314114 -0.025775528
000050 6c 1f 59 bc e8 10 45 3d 3f 59 51 3d 54 bf ff 3a
       -0.01325212 0.048111826 0.051110502 0.0019511976
000060 00 00 00 00 ed 3c aa 3d 71 52 8b 3d f8 75 52 3d
       0.0 0.08312402 0.06802834 0.051382035
000070 29 4a 15 3d 59 3a a5 bc de 83 6a 3d c8 e1 7f bc
       0.036447678 -0.020169424 0.057254665 -0.015617795
000080 f6 1a 39 3d d9 e8 8c bc f9 0d f4 bc 03 87 b8 bc
       0.045191728 -0.017200874 -0.029791819 -0.022525316
000090 7a a4 46 3d 00 00 00 00 f1 59 a7 bc db 5f 8d 3d
       0.0484967 0.0 -0.02042863 0.069030486
0000a0 3b fe 89 bc d7 cd 63 3d 14 98 05 bd 30 8e 29 bd
       -0.01684486 0.055616226 -0.032615736 -0.041395366
0000b0 90 ce 87 3d 00 00 00 00 48 2e fb bc 92 81 ad bc
       0.066311955 0.0 -0.030661717 -0.021179948
0000c0 8f 8c 58 b2 83 df bc bb f0 92 12 3d d2 86 33 3d
       -1.2604814e-08 -0.0057639494 0.03578466 0.043829747
0000d0 da ce 09 3d 00 00 00 00 b7 5b d3 bc 89 1a 50 3d
       0.033644535 0.0 -0.025800569 0.050806556
0000e0 cc 2f 9a bc 92 1a 08 bd ed 02 d1 3d 05 1a 36 bc
       -0.01882162 -0.033228464 0.10205636 -0.011114602
0000f0 9e b0 4c bc ca 7b eb bb 42 a4 2c bd a3 4f 15 3d
       -0.012493281 -0.0071863877 -0.042148836 0.0364529
